model/model.ckpt (torch, 11915 bytes, 8 tensors)

cnn.0.weight f4 [64, 3, 3, 3]
0	0xbe2b4a67	-0.16727601
1	0xbe51b2dd	-0.20478387
2	0xbe47f604	-0.19527441
3	0x3e8a29d7	0.26985046
4	0xbd24da6c	-0.040247366
5	0xbdf079e8	-0.11742002
6	0xbb73fd40	-0.0037229806
7	0x3e7ce733	0.2469757
8	0x3e385e3d	0.18004699
9	0x3e13e93d	0.14444442
10	0x3beb39c0	0.007178515
11	0x3e3503f3	0.17677288
12	0x3d5c635e	0.0538057
13	0x3db9b3e6	0.09067516
14	0xbe1e7515	-0.15474351
15	0x3d8dd96a	0.06926234
16	0xbce915ac	-0.028452717
17	0x3d8d4a5f	0.06898951
18	0xbd9108c5	-0.07081751
19	0x3c9ff4c3	0.019525891
20	0xbd87c221	-0.06628824
21	0xbece4ebb	-0.40294442
22	0x3cdbc7fd	0.02682876
23	0x3d3cc32f	0.04608458
24	0xbd62b8ce	-0.055352025
25	0xbc8c1d62	-0.017103855
26	0x3db57663	0.08860471
27	0xbd900371	-0.070319064
28	0xbdc3b92f	-0.09556805
29	0x3de20d82	0.11037733
30	0x3e3949a7	0.18094502
31	0x3cff6c95	0.031179706
32	0x3dd0a7b2	0.10188235
33	0xbe2469da	-0.16056004
34	0xbe69d2f6	-0.22834381
35	0x3df12611	0.11774839
36	0xbd3994a8	-0.045307785
37	0xbe33f68d	-0.1757452
38	0xbe466a8b	-0.1937658
39	0xbe474368	-0.19459307
40	0xbd7bdadf	-0.06148803
41	0x3d542880	0.051796436
42	0x3d409597	0.04701766
43	0x3d03f29b	0.03221379
44	0x3db803a8	0.089850724
45	0x3d79b125	0.060959954
46	0xbd9c8bd5	-0.07643858
47	0x3d05f8bf	0.032707926
48	0x3d7bfe5a	0.061521865
49	0x3ddc113d	0.107454754
50	0xbc9a728f	-0.018853454
51	0xbdfe2e5f	-0.12411188
52	0x3dfb747e	0.122780785
53	0x3d2b1285	0.04176571
54	0xbe40bd0d	-0.18822117
55	0xbe057dd2	-0.13036278
56	0xbe3e059e	-0.1855683
57	0xbe2046a8	-0.15651953
58	0xbe4b8f34	-0.19878846
59	0x3d81fb57	0.063467674
60	0x3e0de168	0.13855517
61	0xbdb54f6a	-0.08853038
62	0xbd9d05b2	-0.07667102
63	0xbd7166df	-0.058935996
64	0x3e050ed2	0.12993935
65	0xbd8d71e1	-0.06906486
66	0xbd485323	-0.04890741
67	0x3df07d59	0.11742658
68	0x3db87a0c	0.090076536
69	0x3db814fe	0.08988379
70	0x3e2c6676	0.16835961
71	0xbe2fe8f6	-0.17178711
72	0xbd7766a1	-0.06040061
73	0x3e18e847	0.14932357
74	0xbc451c07	-0.012030608
75	0x3dabc4a2	0.08387114
76	0xbae06e0d	-0.0017122641
77	0xbe0b05bb	-0.13576405
78	0xbc7cbd25	-0.015425955
79	0xbc697c35	-0.014250805
80	0xbca1cf64	-0.019752212
81	0x3eae92e3	0.3409644
82	0x3d25a6cb	0.04044227
83	0xbc84e705	-0.01622344
84	0x3cd3b369	0.025842385
85	0xbc717398	-0.014737032
86	0xbc277578	-0.010220878
87	0x3e08cb5d	0.13358827
88	0x3e7b8bad	0.24565001
89	0x3dba2e40	0.09090853
90	0xbe8dcc22	-0.27694803
91	0x3d0dda05	0.034631748
92	0x3def9326	0.11697988
93	0x3e5afe66	0.21386108
94	0xbdb77f65	-0.089598455
95	0x3d20946d	0.03920405
96	0xbdb69856	-0.089157745
97	0xbe635d7c	-0.2220363
98	0xbe8b47fe	-0.27203363
99	0xbe039232	-0.12848738
100	0x3e1e133d	0.15437026
101	0xbe0224eb	-0.12709396
102	0x3e55af37	0.2086762
103	0xbd8549d6	-0.06508224
104	0x3e17d2e5	0.14826544
105	0xbb74a3e1	-0.0037329125
106	0x3e96f21e	0.29481596
107	0x3c45da44	0.012075964
108	0xbe0336fe	-0.12813947
109	0xbe3393d9	-0.17536868
110	0x3d64a388	0.055820018
111	0xbdf7e284	-0.12103751
112	0x3c5ec5e4	0.0135969855
113	0x3c5d88bc	0.01352137
114	0xbe063c2c	-0.13108891
115	0xbe3d7873	-0.18502979
116	0xbd04d580	-0.032430172
117	0xbdc7b202	-0.09750749
118	0x3e3f1a3f	0.18662356
119	0xbe4283e8	-0.1899563
120	0xbcf92a17	-0.030415578
121	0x3e129f26	0.14318523
122	0x3d9b1b44	0.0757356
123	0x3d5a21d3	0.053254914
124	0xbe40043f	-0.1875162
125	0x3db07b23	0.086172365
126	0x3dba2594	0.09089199
127	0xbd28967f	-0.04115915
128	0xbdfc37ab	-0.12315305
129	0x3c81ca69	0.015843587
130	0x3e15f1fa	0.14643088
131	0xbe17640b	-0.14784257
132	0xbdd7e5f8	-0.1054191
133	0xbe0eb517	-0.13936268
134	0xbda98dcf	-0.08279001
135	0x3e98d60d	0.29850808
136	0xbdb699cc	-0.08916053
137	0x3ddea849	0.108719416
138	0x3c6a18b8	0.01428812
139	0x3dc703b7	0.097175054
140	0x3eb83d6c	0.3598436
141	0xbc644001	-0.013931275
142	0xbd5ce96a	-0.05393354
143	0x3dbd2c78	0.09236997
144	0xbc9d6744	-0.01921428
145	0xbba20723	-0.0049446984
146	0xbdab484f	-0.08363401
147	0x3cdb8808	0.026798263
148	0x3e02bf9e	0.12768409
149	0x3e302679	0.17202176
150	0x3e2d4b5c	0.16923279
151	0x3c2cd0d0	0.010547832
152	0x3d49b77e	0.049247257
153	0x3e2fe5f6	0.17177567
154	0xba459f48	-0.00075386884
155	0xbc30f23b	-0.01079994
156	0x3eb41613	0.3517309
157	0xbe416371	-0.1888559
158	0xbe497abe	-0.19675729
159	0x3d81ec6a	0.063439205
160	0x3dadb592	0.084818974
161	0x3d8cf5d3	0.06882825
162	0xbde7725a	-0.11301108
163	0x3d81db29	0.063406296
164	0xbd0439de	-0.03228175
165	0xbdcf4413	-0.10120406
166	0x3e0b6346	0.13612089
167	0xbdeff549	-0.11716706
168	0x3e0ffa20	0.14060259
169	0x3e66cd47	0.22539245
170	0x3e902072	0.28149754
171	0xbdd2250f	-0.102609746
172	0xbd58a1c2	-0.05288864
173	0x3eb1ae70	0.34703398
174	0x3f487ba9	0.7831369
175	0x3dd0219d	0.10162661
176	0xbe4fe351	-0.20301558
177	0x3e5f6db6	0.21819195
178	0xbe836c3e	-0.2566852
179	0xbd268c7a	-0.040661313
180	0xbd7e63ab	-0.06210677
181	0xbe0dc64d	-0.13845177
182	0x3dbce1c2	0.092227474
183	0xbf20ff09	-0.6288915
184	0xbd358422	-0.044315465
185	0x3f03534b	0.5129897
186	0x3d864cec	0.065576404
187	0x3d903e9c	0.07043192
188	0x3e3b5433	0.18293838
189	0xbc2ed29a	-0.0106703285
190	0x3e597cba	0.21238986
191	0xbdc45ab1	-0.095876105
192	0x3e2e21c4	0.17005068
193	0xbe1569f6	-0.14591202
194	0x3d9383ae	0.0720285
195	0xbe1cc37e	-0.1530895
196	0x3df2697b	0.11836525
197	0x3cdc487c	0.026890032
198	0xbe3f1857	-0.18661629
199	0xbe29cada	-0.16581288
200	0x3e08349c	0.13301319
201	0xbe4fa7e1	-0.20278884
202	0x3c837936	0.016049009
203	0xbe62d13e	-0.22150132
204	0xbd5bb0d4	-0.053635433
205	0xbe0b0e00	-0.1357956
206	0xbe0713b5	-0.13191111
207	0x3e1d5502	0.15364459
208	0x3dfdfeca	0.12402113
209	0xbe32d3b9	-0.17463578
210	0xbcacd602	-0.02109814
211	0x3dc9bd26	0.0985053
212	0xbd58a270	-0.052889287
213	0x3d74b294	0.059740618
214	0xbe15b7aa	-0.14620844
215	0x3dff2bd4	0.124595314
216	0x3ef4aae9	0.47786644
217	0x3ea87c28	0.32907224
218	0x3e3bddf1	0.18346383
219	0x3d3dc5ec	0.04633133
220	0xbdbf9055	-0.09353701
221	0x3d378fa6	0.04481473
222	0x3ea4fbda	0.32223397
223	0x3df12544	0.11774686
224	0xbd7fa2fa	-0.062411286
225	0xbee79319	-0.45229414
226	0xbe6929ac	-0.22769803
227	0xbe15fc2d	-0.14646979
228	0x3dde80c4	0.10864404
229	0xbd592041	-0.053009275
230	0x3e655d7e	0.22398946
231	0xbe8dff95	-0.27734056
232	0xbf127f3e	-0.57225406
233	0xbda09ef3	-0.07842817
234	0x3d679c24	0.05654539
235	0xbe184dd3	-0.14873438
236	0xbde3f7ce	-0.11131249
237	0x3e8fa436	0.2805497
238	0x3de0dc8d	0.10979567
239	0xbdb1986a	-0.08671649
240	0x3e06aab1	0.13151051
241	0x3f1f75b5	0.6228898
242	0x3e1c2688	0.15249074
243	0x3e9c6a22	0.30549723
244	0x3e3c2a67	0.1837555
245	0xbe07d355	-0.1326421
246	0x3df26a86	0.11836724
247	0x3bab1bb1	0.005221807
248	0x3ca246c7	0.01980914
249	0x3db1c06d	0.086792804
250	0x3e8fa9a2	0.28059107
251	0x3d77b6b2	0.060476966
252	0xbea9dd02	-0.33176428
253	0x3d6c7782	0.05773116
254	0x3b77fc5b	0.0037839625
255	0x3e70d161	0.23517372

cnn.0.bias f4 [64]
0	0x3d980836	0.07423441
1	0x3e0f09e9	0.13968624
2	0x3df03116	0.117281124
3	0x3cea52a2	0.028603856
4	0xbe0ae230	-0.13562846
5	0x3e685612	0.22689083
6	0x3e196ce5	0.14982946
7	0x3e466c7f	0.19377325
8	0x3da5ae1c	0.08089849
9	0x3e17d00b	0.14825456
10	0x3d8d796b	0.06907924
11	0xbdb76581	-0.08954907
12	0x3e1cbecd	0.1530716
13	0xbe707030	-0.23480296
14	0xbc80b33b	-0.015710464
15	0xbd49be7b	-0.049253922
16	0xbe41f1f8	-0.1893996
17	0x3e45c5dd	0.1931376
18	0x3fdaffe9	1.7109348
19	0x3f82a5e7	1.0206879
20	0x3d6f89b4	0.058480933
21	0xbd9223f8	-0.07135767
22	0x3e085b81	0.13316156
23	0x3d7813be	0.060565703
24	0x3e722adf	0.23649167
25	0x3d6a3afd	0.05718516
26	0x3f156c2d	0.5836819
27	0x3f4fb7f2	0.81140053
28	0x3d26e3b9	0.040744517
29	0x3ec05c19	0.37570265
30	0xbc0dc696	-0.008653304
31	0xbe0883da	-0.13331547
32	0x3dd33ad5	0.10313956
33	0xbdd71843	-0.105026744
34	0xbd7bd359	-0.061480854
35	0x3ca73c7a	0.02041458
36	0xbe31ee69	-0.17376103
37	0x3e5855c5	0.21126468
38	0x3e07e0c9	0.13269342
39	0xbd52d4dc	-0.05147253
40	0xbcfdbd8e	-0.030974176
41	0x3ced859a	0.02899437
42	0xbe6581d2	-0.22412804
43	0xbd94ee18	-0.07271975
44	0x3ca0b990	0.019619733
45	0xbe0fe1ac	-0.1405093
46	0x3d5d760a	0.05406765
47	0x3e6d3046	0.23162946
48	0x3e47ec24	0.19523674
49	0xbda2b3bb	-0.07944437
50	0xbda8050d	-0.08204088
51	0xbd6df300	-0.05809307
52	0xbd2c5db2	-0.042081542
53	0xbca0e30a	-0.01963951
54	0x3e330c80	0.17485237
55	0xbd93b312	-0.07211889
56	0x3d892891	0.066971906
57	0xbd5f91ba	-0.054582335
58	0xbcc706a7	-0.024295164
59	0xbe21325b	-0.15741865
60	0xbdcac11a	-0.099001125
61	0xbd8884eb	-0.06665977
62	0x3ca0cadb	0.019627979
63	0x3d5f9594	0.05458601

cnn.1.weight f4 [64]
0	0x3f8da846	1.1066978
1	0x3f84e73c	1.0383067
2	0x3f7f6071	0.9975653
3	0x3f96c30e	1.1778276
4	0x3f800000	1.0
5	0x3f915c4c	1.1356292
6	0x3fb3a939	1.4036018
7	0x3f84e0aa	1.0381062
8	0x3fc443eb	1.5333227
9	0x3f9d7bda	1.2303421
10	0x3f8c0311	1.0938436
11	0x3f96da28	1.1785326
12	0x3f8e5644	1.1120076
13	0x3f8f00ad	1.1172081
14	0x3fb0a0d2	1.3799078
15	0x3f890c1e	1.0706823
16	0x3f800000	1.0
17	0x3f921c54	1.1414895
18	0x406ab931	3.6675532
19	0x403c957d	2.946624
20	0x3f7ffcc0	0.9999504
21	0x3fa91722	1.3210185
22	0x3f9dbcdc	1.232326
23	0x40058f5e	2.0868754
24	0x3f9515a0	1.1647224
25	0x3f800199	1.0000488
26	0x3fe9b2a7	1.8257645
27	0x40043b8d	2.0661347
28	0x3f806608	1.0031137
29	0x3fc950c1	1.5727769
30	0x3f81f88b	1.0153974
31	0x3f7fcd34	0.9992249
32	0x3fa20464	1.265759
33	0x3f81ec61	1.0150262
34	0x3f8067be	1.003166
35	0x3f82662a	1.0187428
36	0x3f80c271	1.0059339
37	0x3f8f3022	1.1186564
38	0x3fc0a404	1.5050054
39	0x3f8a822d	1.0820976
40	0x3fb375b7	1.4020299
41	0x3f98cbf7	1.1937245
42	0x403ab5c0	2.9173431
43	0x3f8152a4	1.0103345
44	0x3f88c1d2	1.0684149
45	0x3f838b21	1.0276834
46	0x3f800000	1.0
47	0x3f837938	1.0271368
48	0x3f869f46	1.0517356
49	0x3f7fb8ca	0.9989134
50	0x3ff75a94	1.9324517
51	0x3f80dde6	1.0067718
52	0x3f806be0	1.0032921
53	0x3fc5b0e5	1.5444609
54	0x3f83f281	1.0308381
55	0x3f9bd892	1.2175467
56	0x3fe9acd8	1.8255873
57	0x3f7fd769	0.99938065
58	0x3f82d6e6	1.0221832
59	0x3f8affb5	1.0859286
60	0x3f800000	1.0
61	0x3f7fee63	0.99973124
62	0x3faad55e	1.3346364
63	0x3f82ff03	1.0234073

cnn.1.bias f4 [64]
0	0xbd11ce33	-0.035597038
1	0x3b4f83d4	0.003166427
2	0xbcae16f5	-0.021251181
3	0x3bc42f43	0.0059870793
4	0x00000000	0.0
5	0x3e19dc66	0.15025482
6	0x3d931323	0.071813844
7	0x3cc4f135	0.024040798
8	0x3d50fbb4	0.051021293
9	0x3d053de1	0.032529715
10	0x3d206ffc	0.039169297
11	0xbd1d8ed8	-0.038466305
12	0x3d6865ce	0.056737714
13	0xbd4104fc	-0.047123894
14	0xbbf96e00	-0.00761199
15	0x3da9d055	0.08291689
16	0x00000000	0.0
17	0x3cfe8578	0.031069502
18	0x3f40b296	0.752725
19	0x3f25eece	0.6481751
20	0xb9693889	-0.00022241673
21	0x3b4065bf	0.002935752
22	0x3d3894cf	0.04506379
23	0x3dc0ad86	0.09408097
24	0x3d919b2c	0.07109675
25	0xba24167a	-0.0006259453
26	0x3ed368a4	0.41290772
27	0x3ee8292a	0.45343906
28	0xba81da79	-0.0009907029
29	0x3ea42c70	0.32065153
30	0x3c3e084d	0.011598659
31	0xbc345f6e	-0.01100908
32	0x3d8843bf	0.066535465
33	0x3d741d05	0.059597988
34	0xbb382b87	-0.0028102116
35	0xbc866c95	-0.016409198
36	0xbc0d60bd	-0.008629021
37	0x3df57fb7	0.1198725
38	0x3d60533e	0.054766886
39	0x3d4af3b8	0.049548835
40	0xbc6a0299	-0.014282846
41	0xbcca542c	-0.02469834
42	0x3ce84e40	0.028357625
43	0xbc985f72	-0.0186002
44	0x3cb0a4a4	0.021562882
45	0xbcc9f94e	-0.02465501
46	0x00000000	0.0
47	0x3d2339e8	0.039850146
48	0x3c67d1b9	0.014149123
49	0xbc909947	-0.017651213
50	0x3b9e2ba7	0.004826981
51	0x3cca4d80	0.024695158
52	0x3c7ec87f	0.015550732
53	0x3d81a14d	0.06329594
54	0x3d201599	0.039083097
55	0x3d6b1865	0.05739631
56	0xbce4b6a2	-0.027919117
57	0xbc73b7b8	-0.014875345
58	0x3c261b10	0.010138288
59	0x3d1619d7	0.036645737
60	0x00000000	0.0
61	0xbbf2125e	-0.0073874434
62	0x3df153e6	0.117835805
63	0x3cb920ae	0.02259859

cnn.1.running_mean f4 [64]
0	0x00000000	0.0
1	0x00000000	0.0
2	0x00000000	0.0
3	0x00000000	0.0
4	0x00000000	0.0
5	0x00000000	0.0
6	0x00000000	0.0
7	0x00000000	0.0
8	0x00000000	0.0
9	0x00000000	0.0
10	0x00000000	0.0
11	0x00000000	0.0
12	0x00000000	0.0
13	0x00000000	0.0
14	0x00000000	0.0
15	0x00000000	0.0
16	0x00000000	0.0
17	0x00000000	0.0
18	0x00000000	0.0
19	0x00000000	0.0
20	0x00000000	0.0
21	0x00000000	0.0
22	0x00000000	0.0
23	0x00000000	0.0
24	0x00000000	0.0
25	0x00000000	0.0
26	0x00000000	0.0
27	0x00000000	0.0
28	0x00000000	0.0
29	0x00000000	0.0
30	0x00000000	0.0
31	0x00000000	0.0
32	0x00000000	0.0
33	0x00000000	0.0
34	0x00000000	0.0
35	0x00000000	0.0
36	0x00000000	0.0
37	0x00000000	0.0
38	0x00000000	0.0
39	0x00000000	0.0
40	0x00000000	0.0
41	0x00000000	0.0
42	0x00000000	0.0
43	0x00000000	0.0
44	0x00000000	0.0
45	0x00000000	0.0
46	0x00000000	0.0
47	0x00000000	0.0
48	0x00000000	0.0
49	0x00000000	0.0
50	0x00000000	0.0
51	0x00000000	0.0
52	0x00000000	0.0
53	0x00000000	0.0
54	0x00000000	0.0
55	0x00000000	0.0
56	0x00000000	0.0
57	0x00000000	0.0
58	0x00000000	0.0
59	0x00000000	0.0
60	0x00000000	0.0
61	0x00000000	0.0
62	0x00000000	0.0
63	0x00000000	0.0

cnn.1.running_var f4 [64]
0	0x3f800000	1.0
1	0x3f800000	1.0
2	0x3f800000	1.0
3	0x3f800000	1.0
4	0x3f800000	1.0
5	0x3f800000	1.0
6	0x3f800000	1.0
7	0x3f800000	1.0
8	0x3f800000	1.0
9	0x3f800000	1.0
10	0x3f800000	1.0
11	0x3f800000	1.0
12	0x3f800000	1.0
13	0x3f800000	1.0
14	0x3f800000	1.0
15	0x3f800000	1.0
16	0x3f800000	1.0
17	0x3f800000	1.0
18	0x3f800000	1.0
19	0x3f800000	1.0
20	0x3f800000	1.0
21	0x3f800000	1.0
22	0x3f800000	1.0
23	0x3f800000	1.0
24	0x3f800000	1.0
25	0x3f800000	1.0
26	0x3f800000	1.0
27	0x3f800000	1.0
28	0x3f800000	1.0
29	0x3f800000	1.0
30	0x3f800000	1.0
31	0x3f800000	1.0
32	0x3f800000	1.0
33	0x3f800000	1.0
34	0x3f800000	1.0
35	0x3f800000	1.0
36	0x3f800000	1.0
37	0x3f800000	1.0
38	0x3f800000	1.0
39	0x3f800000	1.0
40	0x3f800000	1.0
41	0x3f800000	1.0
42	0x3f800000	1.0
43	0x3f800000	1.0
44	0x3f800000	1.0
45	0x3f800000	1.0
46	0x3f800000	1.0
47	0x3f800000	1.0
48	0x3f800000	1.0
49	0x3f800000	1.0
50	0x3f800000	1.0
51	0x3f800000	1.0
52	0x3f800000	1.0
53	0x3f800000	1.0
54	0x3f800000	1.0
55	0x3f800000	1.0
56	0x3f800000	1.0
57	0x3f800000	1.0
58	0x3f800000	1.0
59	0x3f800000	1.0
60	0x3f800000	1.0
61	0x3f800000	1.0
62	0x3f800000	1.0
63	0x3f800000	1.0

fc.1.weight f4 [4, 64]
0	0xbde54e28	-0.11196548
1	0xbd048fed	-0.03236382
2	0x3d2ced1a	0.042218305
3	0x3f1e5e0a	0.6186224
4	0xbdb82764	-0.08991888
5	0x3e837e7c	0.25682437
6	0x3ec6a4f6	0.3879773
7	0x3e6cace4	0.23112828
8	0x3f8a5ddf	1.0809897
9	0x3f3b7290	0.73221684
10	0xbe04168a	-0.12899223
11	0x3f269482	0.65070355
12	0x3ee3031e	0.44338316
13	0xbea8bebd	-0.32958022
14	0xbf0247da	-0.50890887
15	0x3d737a4b	0.0594428
16	0xbddeb496	-0.10874288
17	0xbc22ce09	-0.009936818
18	0x40683ba4	3.6286402
19	0x3e982a92	0.2971998
20	0xbd4fd595	-0.050740797
21	0xbeda5f14	-0.42650664
22	0x3dad120a	0.08450706
23	0xbfe041a3	-1.7520031
24	0x3f167ec2	0.5878717
25	0xbddc0970	-0.107439876
26	0x3f092d76	0.5358499
27	0x3f9f6f1f	1.2455786
28	0x3de46c44	0.111534625
29	0x3f3a4dfb	0.7277524
30	0x3d8c9a7c	0.06865403
31	0x3d518084	0.051147953
32	0x3f47ea1e	0.7809161
33	0xbdaa452d	-0.083139755
34	0xbd73f320	-0.059558034
35	0xbe348624	-0.17629296
36	0x3da5c766	0.08094673
37	0x3ede3c77	0.43405506
38	0x3e88492a	0.2661832
39	0x3d80461b	0.062633716
40	0xbf81395f	-1.0095633
41	0xbf07f677	-0.5311045
42	0xbf7673db	-0.9627053
43	0x3c0385d9	0.008027517
44	0xbe839f3d	-0.25707427
45	0x3d82471b	0.063612185
46	0x3d7aee04	0.061262146
47	0x3e8444e9	0.25833824
48	0x3d8dff34	0.06933442
49	0xbd42ba2a	-0.04754082
50	0xbe0a7e57	-0.13524757
51	0xbdd253f0	-0.10269916
52	0xbcfaebc7	-0.030630006
53	0x3e4ba318	0.19886434
54	0xbdf3e6c3	-0.11909249
55	0x3f1d6caa	0.61493933
56	0xbecb6b0d	-0.3973011
57	0x3a295d38	0.0006460729
58	0xbd9aad54	-0.07552591
59	0x3ecb78df	0.39740655
60	0x3d2bc7e8	0.041938692
61	0x3bbb8ef6	0.0057238294
62	0x3f644a8a	0.8917624
63	0xbd91f78d	-0.07127295
64	0xbdf05c2c	-0.117363304
65	0x3d8a0ede	0.06741117
66	0x3dcb0edc	0.099149436
67	0xbcaafc87	-0.020872368
68	0xbd54796c	-0.05187361
69	0x3e1a2729	0.15054001
70	0x3f16b216	0.5886549
71	0x3b4ce505	0.0031264436
72	0x3eb4fa28	0.35347104
73	0xbbd69376	-0.0065483404
74	0x3caf69bb	0.02141272
75	0x3b7d32b5	0.003863496
76	0x3e44c7b6	0.19216809
77	0x3e7d2b58	0.24723566
78	0x3ed507c2	0.4160748
79	0x3e6cd04b	0.23126332
80	0xbdc70d6a	-0.097193554
81	0xbe89675d	-0.26836672
82	0x4029a500	2.6506958
83	0x3fea7255	1.8316141
84	0x3d4e0c9f	0.050305005
85	0x3eb94d92	0.36191994
86	0x3ed6b218	0.4193275
87	0x3f41eab2	0.7574874
88	0x3d273718	0.040824026
89	0xbd961506	-0.07328229
90	0x3e7fa94c	0.24966925
91	0x3ec24403	0.37942514
92	0xbdf078f7	-0.11741822
93	0xbcb8379b	-0.022487452
94	0x3e3ec8fb	0.18631355
95	0xbdb17eb8	-0.08666748
96	0x3dc0fea6	0.0942357
97	0xbe341df1	-0.17589547
98	0x3dc0ea6c	0.094197124
99	0x3c473652	0.012158947
100	0x3e38682a	0.18008485
101	0x3de2f638	0.11082119
102	0x3edfffa7	0.43749735
103	0xbe217260	-0.15766287
104	0xbe0bb15a	-0.13641873
105	0x3e8c7b24	0.274377
106	0x3fb301bc	1.3984904
107	0x3cecb159	0.02889316
108	0x3d864300	0.06555748
109	0xbd1da2d8	-0.038485378
110	0x3dbef4c2	0.093240276
111	0x3cf808ab	0.03027757
112	0x3e33a8c1	0.17544843
113	0xbde4a2f8	-0.11163896
114	0xbe436617	-0.19081913
115	0xbe027084	-0.12738234
116	0xbd917f89	-0.071044035
117	0xbd77ac87	-0.06046727
118	0xbe02e183	-0.12781338
119	0xbda04af1	-0.07826794
120	0xbec13143	-0.37732896
121	0x3cccefca	0.025016684
122	0x3d9e11c6	0.07718234
123	0xbe4f68cb	-0.20254819
124	0xbda03e36	-0.07824366
125	0x3d765d88	0.060147792
126	0x3df7bd43	0.12096646
127	0xbe20f314	-0.15717727
128	0xbdd44666	-0.1036499
129	0xbc80fe83	-0.01574636
130	0x3d4e20c9	0.050324235
131	0xbd45ff5a	-0.048339225
132	0x3d2245f4	0.039617494
133	0x3e19bde9	0.15013851
134	0xbda5c747	-0.0809465
135	0xbd61516f	-0.0550093
136	0xbd5a8813	-0.053352427
137	0xbcbad03a	-0.022804368
138	0x3e103a59	0.14084758
139	0xbd816dc8	-0.06319767
140	0xbdef373c	-0.11680457
141	0xbe080458	-0.13282907
142	0x3d27b717	0.040946092
143	0x3dc143a9	0.09436733
144	0xbd4f34a0	-0.050587296
145	0x3e02b978	0.12766063
146	0x40211c63	2.5173576
147	0x3f997fc3	1.1992115
148	0xbdb69bc0	-0.08916426
149	0xbc491b44	-0.012274567
150	0xbd2b3b8f	-0.041804846
151	0x3ed9d33c	0.42543972
152	0xbd0cfbdf	-0.03441989
153	0x3dc35609	0.09537894
154	0x3f0d2825	0.5513938
155	0x3f29ff7f	0.6640548
156	0x3da328a9	0.0796674
157	0x3ed513f6	0.4161679
158	0x3dca78d5	0.09886328
159	0x3da5f2fc	0.08102986
160	0x3cd9bccd	0.026579285
161	0x3c596fc3	0.013271275
162	0xbd175573	-0.036946725
163	0x3d54978b	0.051902335
164	0x3daf1702	0.0854931
165	0xbd28ad24	-0.041180745
166	0x3df5ebe4	0.12007883
167	0x3ce8bff1	0.028411837
168	0x3ddeba7e	0.10875414
169	0xbd82b503	-0.063821815
170	0x3efa963e	0.4894275
171	0xbe0627a6	-0.13101062
172	0x3dab3a51	0.08360732
173	0xbe0d4e2e	-0.13799354
174	0x3d5225b8	0.051305503
175	0x3d0299ac	0.031884834
176	0xbe00d6fb	-0.12582009
177	0xbc531dd7	-0.012885532
178	0x3e4ef6b0	0.20211291
179	0x3cdb9114	0.026802577
180	0x3ddc6604	0.107616454
181	0x3a83a7d7	0.0010044527
182	0x3e0af16a	0.13568655
183	0xbde03ddb	-0.10949298
184	0x3dd68091	0.10473741
185	0xbdc46658	-0.09589833
186	0x3d72c847	0.05927303
187	0x3deb42b7	0.11487334
188	0xbda4fdd8	-0.08056229
189	0xbdfacdc6	-0.122462794
190	0x3e56300b	0.20916764
191	0xbd1e8ded	-0.03870957
192	0xbef57bc4	-0.47945988
193	0x3e915d6a	0.28391582
194	0xbdebc81e	-0.11512779
195	0x3e521a68	0.20517886
196	0x3d54ef04	0.051985756
197	0x3ef802e5	0.48439708
198	0xbf53443d	-0.82526
199	0xbe461604	-0.19344336
200	0x3eb47aad	0.35249844
201	0xbe0af253	-0.13569002
202	0xbef57049	-0.4793723
203	0xbb878214	-0.0041353796
204	0xbe55fa08	-0.2089616
205	0xbe96c39d	-0.29446116
206	0xbf480c8e	-0.78144157
207	0xbec01bb8	-0.37521148
208	0x3c9af228	0.018914297
209	0x3efb124a	0.4903739
210	0x40109a18	2.2594051
211	0x401dde67	2.4666994
212	0xbdc8a731	-0.09797514
213	0xbf3768f1	-0.716445
214	0xbf20bb23	-0.6278555
215	0xbe40584e	-0.18783686
216	0xbe807b2c	-0.25093973
217	0xbddc270e	-0.107496366
218	0x3fbdbc0f	1.4823016
219	0x3fb4ada0	1.4115486
220	0x3c6d4a5f	0.0144830635
221	0x3f83c3b9	1.0294105
222	0xbdf7c551	-0.12098182
223	0xbdda1f55	-0.10650507
224	0xbe09e369	-0.13465656
225	0x3e0fa336	0.14027104
226	0x3de88d18	0.113550365
227	0x3e456544	0.19276911
228	0xbdf60832	-0.12013282
229	0x3ea4e727	0.32207605
230	0xbf827931	-1.0193235
231	0x3ed23283	0.41054162
232	0xbe3b6bb0	-0.18302798
233	0xbea2328e	-0.31679195
234	0xc0104452	-2.25417
235	0x3e36046f	0.17775129
236	0xbea06d76	-0.31333512
237	0xbe6e5d18	-0.232777
238	0x3c9cf598	0.019160077
239	0xbdbb8e7c	-0.09158036
240	0xbe94cff9	-0.2906492
241	0x3de2de2f	0.110775344
242	0x3fd1f603	1.6403202
243	0x3dc3cf97	0.09561079
244	0x3e0b3f74	0.13598424
245	0x3f97e8be	1.1867902
246	0xbe3f7a09	-0.18698896
247	0x3ebaf0ca	0.36511832
248	0x3fb86317	1.440524
249	0x3de24df8	0.110500276
250	0xbe7461f2	-0.23865488
251	0xbdeee4df	-0.116647474
252	0x3c88fe98	0.016722962
253	0xbd6e6f74	-0.05821176
254	0x3dd1ee24	0.102505
255	0xbe46c981	-0.19412805

fc.1.bias f4 [4]
0	0xbd2ead1d	-0.042645562
1	0xbab15f41	-0.0013532416
2	0x3d0896fb	0.03334711
3	0x3e252f7e	0.16131398
