model/target_model.ckpt (torch, 99139 bytes, 4 tensors)

cnn.0.weight f4 [64, 15, 5, 5]
00000000: e419 4bbe 9c61 5dbf 7bce cebe 2a33 c93e
00000010: 50c3 383e c794 40be cdfb fbbe c300 14bf
00000020: b929 943d 95c0 a8bd adb7 05bf e4fa f5bd
00000030: be5e 293f 7244 2b3f f5f8 2e3e 0572 c8bc
00000040: 3a98 44be b4a3 6b3d 1a1f e93e ffcf 373e
00000050: 3796 2cbe 3724 89be d268 79be 8706 de3e
00000060: c2e9 dd3e 5b9d 8d3e 4d5d c93e bbde 023f
00000070: 0022 5d3e c41a 123f f092 733e 9e40 babe
00000080: bd48 e9be 93dc 373e a386 2c3f 9220 19be
00000090: 7347 71bf d36b 8bbc 441d 793e 55e0 073f
000000a0: 6519 723e cf5d d7be 0ab9 39bc d819 5dbe
000000b0: 4a49 a03e cc37 313f 2438 f73e 48d6 c33e
000000c0: c0fc 233e 28fd 283e 5843 2e3f 6f63 8f3f
000000d0: 3099 1c3f 914e 373d 8c64 07bd 91c8 243f
000000e0: 6b84 c73f 9b19 da3f cae5 dc3e 13ab 133e
000000f0: f2d4 b43f c24d e93f 7cdb 2d3d f1a1 89be
00000100: 03a7 c03c e52c f83e 697c a83f bc74 423f
00000110: f40f fe3e b791 163e d4ee 533d 7bb4 003f
00000120: cba9 013f 1bcb 2b3e 939a ed3d 78e2 ecbe
00000130: 6b3c 9dbe 9949 81be 4004 69be 41a4 a33e
00000140: 5460 50be 61b8 3cbe fcfe e6be bded af3d
00000150: a043 abbc 235c ccbe 169d d33d 18c6 85bd
00000160: 1ff7 01bf e3bc 89be 3f09 31bf ac90 cabe
00000170: a146 edbe eb5f 403e fea6 d9bd 1bc0 06bf
00000180: 42e7 39be e9bb c6be f1da f03c 579a 813c
00000190: 8421 ca3c f4dd 58be 6ccf e3bc bd87 87bd
000001a0: d05b a6be 177d 4bbe e354 c7be 5b43 e03e
000001b0: 6225 28be 0515 8ebe 189b f5bd ed6b febe
000001c0: 77f1 30bd d37f 7fbe 5efa 673e 25ab 2d3e
000001d0: e03b e93d e2b3 79ba 7cd1 29be 8a8a f63d
000001e0: 314f 673e 72ae cfbd c064 ac3d 077c 6dbe
000001f0: a911 66bd 4cfb e33e 8829 d93e 55a1 753e
00000200: baa8 a63e 2dc4 2bbd c5c6 e23e 3695 013f
00000210: aff0 3fbd bec1 83bd 9f2c a83e 6264 013f
00000220: 1326 c73e 4729 053c fe9b 223f 34b9 ebbc
00000230: d3d5 113f e692 843e 1aab a33e f198 b2bd
00000240: c31a 30bd 213b af3e a312 983e 1826 7a3e
00000250: 3a5b c83d a1d7 dc3c 8582 17be d990 13be
00000260: c928 543e 75eb cdbd 9441 173e 51e2 9d3e
00000270: 557c 1bbe d5a3 9a3d 5773 763e b7e5 733d
00000280: f544 d23d fe34 afbd 3f0c 6f3d aa6f b73d
00000290: be59 21be 7ed8 04bf 2b90 bb3d 2e8c 0f3e
000002a0: 5e26 3cbe e465 823d f2b5 30be b670 b9bd
000002b0: a257 84be c4a2 51be 4800 5c3c 5b15 9c3d
000002c0: 16f1 0b3d c5ce 2ebc a72d b93d 638a aebc
000002d0: 7e6a e4be cea8 82bd 5e2e 4fbe 5737 d5be
000002e0: 3858 3dbd 54ee ffbd 88a1 d03d 1a62 433d
000002f0: 2cac d2bd b251 b2bd 81bb 4d3d b865 afbe
00000300: c92d e6bd 45b9 e93d 300e 5f3d 2263 33bc
00000310: c4e8 f7bc 49ee 7b3c b780 433d 65ea 223e
00000320: 2c41 2b3e aff1 6f3e eea5 44bd 1d4c 5d3d
00000330: ceb3 34bd dc67 6a3e cb46 8f3e efbc 073d
00000340: af6d 273e 7d69 b43d bf75 62bc c3d7 e83d
00000350: 9eb5 333d bab2 9c3c ac8f 933e 69f1 f53e
00000360: a43e 8e3e 203c dfbd d93d 0b3e a6c9 edbd
00000370: bbb6 5e3e 1f81 3e3e 1280 893e 2374 b53d
00000380: 4c82 84bc e70e 2cbf ddb1 c43d 07ae 213e
00000390: 75de 71be 5297 993d 55ff 703d 09cf 0a3e
000003a0: 0bec 86be 693d 68be de20 b3bd c8c5 b73d
000003b0: 27a0 a0be 9a3c 983d 2d9d bc3d 7cb0 8b3c
000003c0: 9d63 e5bd 62fd 9b3c 2c1f 0d3e 50b1 3f3d
000003d0: f2c2 c63d 3e67 873e 55de 423e 2c33 cdbd
000003e0: a16e 873e 4c29 4e3d 4094 303f 12f3 46be
000003f0: cbf7 67be f44b 9c3e 7ec6 caba 29af 023e
-0.19834095 -0.86477065 -0.40391907 0.39296848 0.18043256 -0.18806754 -0.49215546 -0.5781366
0.072345205 -0.08239857 -0.5223339 -0.12010744 0.6616019 0.66901314 0.17087157 -0.024468431
-0.19198695 0.057529166 0.4553154 0.17950438 -0.16854177 -0.26785442 -0.24356392 0.43364355
0.43342406 0.27659115 0.39328995 0.5112111 0.21595001 0.5707209 0.23786521 -0.36377424
-0.45563307 0.17955236 0.6739294 -0.14953831 -0.9424965 -0.017019188 0.2432757 0.5307668
0.236425 -0.42063758 -0.011335621 -0.2159189 0.31305915 0.69225764 0.4828502 0.3824942
0.16014385 0.16502821 0.6807151 1.120222 0.61171246 0.04475266 -0.033054873 0.6436854
1.5587286 1.7039064 0.43144065 0.14420728 1.4127486 1.8226855 0.042445645 -0.26881364
0.023517137 0.48471752 1.3162967 0.7595937 0.49621546 0.14704023 0.051741436 0.5027539
0.5064971 0.16776697 0.11601748 -0.46266532 -0.30710158 -0.25251463 -0.22755527 0.31961253
-0.20349246 -0.1842971 -0.45116413 0.08590267 -0.02090627 -0.39914045 0.10332696 -0.06531924
-0.507677 -0.26901922 -0.69154733 -0.395635 -0.46342948 0.1878659 -0.10627554 -0.5263688
-0.18154624 -0.3881524 0.029401274 0.015820665 0.024674185 -0.21178418 -0.027808867 -0.06617687
-0.32491922 -0.19871937 -0.3893195 0.43801388 -0.1642051 -0.27750412 -0.119924724 -0.49691716
-0.04319903 -0.24951105 0.22654101 0.16959818 0.113883734 -0.0009525401 -0.16583818 0.12038143
0.22588803 -0.10140695 0.08417654 -0.23191844 -0.056169186 0.44527662 0.42414498 0.23987325
0.32550603 -0.041935135 0.44292274 0.506183 -0.046860393 -0.06433438 0.32846543 0.50543797
0.38896236 0.008127517 0.63519275 -0.028774835 0.56966895 0.25893325 0.31966478 -0.087205775
-0.042994272 0.342248 0.2970172 0.24428594 0.09783025 0.026958289 -0.14795883 -0.14410724
0.20718683 -0.100546755 0.1477111 0.30836728 -0.15184148 0.0755078 0.24067436 0.059545245
0.10267059 -0.08555029 0.05836129 0.08956845 -0.1575689 -0.5189284 0.09158357 0.14018318
-0.18374011 0.0636709 -0.17256907 -0.09054701 -0.2584811 -0.20472246 0.013427801 0.07621261
0.034165464 -0.010669415 0.090419106 -0.021306222 -0.44612497 -0.06379853 -0.20232531 -0.41643783
-0.04622671 -0.12496629 0.1018706 0.04770098 -0.102867454 -0.087069884 0.050227646 -0.34257293
-0.112392016 0.114122905 0.05445689 -0.010948928 -0.030262358 0.015376636 0.047730174 0.15909727
0.1672408 0.23432039 -0.048009805 0.054027665 -0.044116788 0.22891182 0.27983698 0.033139165
0.16350435 0.08809183 -0.013822018 0.11369278 0.043874376 0.019128192 0.2882055 0.48035744
0.27782166 -0.1090014 0.13597812 -0.11610727 0.21749394 0.18603943 0.26855522 0.08860042
-0.016175412 -0.6721024 0.09604237 0.15789042 -0.23620017 0.07499565 0.058837254 0.1355554
-0.26351961 -0.22679676 -0.08746503 0.08973271 -0.31372187 0.07433434 0.092096664 0.017051928
-0.1120064 0.01904172 0.13781422 0.046799958 0.097051516 0.26445955 0.19030125 -0.10019526
0.2645159 0.050332353 0.6897621 -0.19428661 -0.2265312 0.30526698 -0.0015470532 0.12762131

cnn.0.bias f4 [64]
00000000: 5bbc 273f 29e6 273f 8713 a23d 7d99 1840
00000010: 61b2 7c3f a830 db3e 238d 513e 2e34 933d
00000020: ce08 853d 7ad2 823f 8144 d43e fc69 1e3e
00000030: 1016 2c3f 805b 403f edd0 ca3e a60b 4a3d
00000040: bda0 913f 93ba 82ba b525 9e3e 841a 1cbd
00000050: c33e 22bd 5a18 11bd 57b5 003f 0ac9 b73f
00000060: e959 e63e edeb e6be 6566 9c3e e21a de3f
00000070: 2235 aabf 97ce 4340 d09e 033f 21f7 bf3e
00000080: 34d3 66bf 13b4 bf3e 99be 763c b2f2 d43e
00000090: e5cb 813c 4bda 2d3c 0655 aa3f 151f 1e3f
000000a0: e1dd 573f 1a68 cf3e 2264 d73e 06b0 993e
000000b0: 7c4f f13e 72c7 7abc 0ba4 30bd d1df bc3e
000000c0: 8923 eb3f 54a5 b53e 539a 10be 830f 013d
000000d0: 151e 023f d6d6 213f 7278 a83e 39ba 0bbd
000000e0: d329 bdbe 0eea 253c 5e91 02be 0eda 2a3d
000000f0: 08f6 0e3e 964b 833e 8527 783f a90b a73d
0.6552178 0.6558557 0.07913881 2.3843682 0.98709685 0.4281056 0.20463996 0.07187687
0.0649582 1.0220482 0.41458514 0.15470117 0.67221165 0.7513962 0.39612523 0.049327515
1.1377178 -0.0009973816 0.30888143 -0.038111225 -0.039610635 -0.035423614 0.502767 1.4358227
0.4499047 -0.45101872 0.3054687 1.7351954 -1.3297465 3.0594842 0.51414204 0.37493232
-0.9016602 0.37442073 0.01506009 0.41591412 0.015844295 0.010611127 1.3307197 0.6176618
0.84322935 0.4050911 0.42068583 0.30017108 0.47130954 -0.0153063405 -0.043125194 0.36889508
1.837022 0.35477698 -0.1412137 0.031508934 0.5082715 0.6321844 0.32904392 -0.034113143
-0.36945972 0.010126604 -0.12750766 0.04171186 0.13961041 0.25643605 0.969353 0.08156521

fc.1.weight f4 [4, 64]
00000000: 502f 1040 a101 7f3f f89f 133f 2bc0 4940
00000010: e9cf 2540 0c57 bb3f ec28 bf3f 0799 013e
00000020: ee9f c73e efd6 3d40 136b 0d3f 2e21 f73d
00000030: 7fb6 09bf abea 883f ee60 a23f 1ff4 debf
00000040: ff18 d33f 1b89 d5bf dfc7 a440 132f 93be
00000050: 1063 f1bd 9ded 223c bb5c e63f e824 e23f
00000060: 0772 0940 ff1d 0dc0 cd8e 3e40 227b 0340
00000070: f080 83c0 77d6 6c40 e323 ed3f e2a2 0240
00000080: 7b28 50c0 3746 ce3f 48d6 293f 145d 003f
00000090: 91c9 d13c abb3 aa3f 277a 4240 6c49 ce3f
000000a0: b5b9 9d3f 7fad 0ac0 fc3e 8940 412d 9e3f
000000b0: 202c 263f 6758 b2bd 4d1b 8cbe 9b36 a43f
000000c0: a6dc d03f 77f2 853f 7665 183f 3618 7d3e
000000d0: 4306 c13f 2130 e43f 760f 6c40 d34e 85be
000000e0: 1199 f7bf 3eed e3bf aefc 113e 4404 a23f
000000f0: b7d4 303f 126a 973f 777a 4abf d4d2 083f
00000100: 4444 f73e 1156 c93f a81a 673e 646a 6d40
00000110: 8381 4640 0146 c93e db2b 983d 7a66 2e3e
00000120: 3fb6 82bf 68f6 5c40 0318 733f 8fbb eb3f
00000130: 63a1 5d40 0b29 d5be f00f 95bf 958a 23be
00000140: c6c0 4240 e184 f1bc c414 b33e 9cff 0dbd
00000150: a9f8 a4bd 3079 31bf edea 0ec0 710a 4a40
00000160: 82b9 9b40 fb69 65c0 f8b1 ba3e 03d4 1b40
00000170: 92c4 38c0 b697 8840 6742 31c0 0410 803f
00000180: 65e1 4fc0 ed9c d33f 83aa ba3e 5d6f 32c0
00000190: c52f dc3e f864 0abf 047b 6b3f 1a80 ab3f
000001a0: 2a49 273c 597f c93e 1b62 b53e b518 a93f
000001b0: a705 d53e 5bd6 d73e 00f1 5fbd cfae ff3f
000001c0: 1d89 8140 ab3d 393f 16ce c63e bf1a b43e
000001d0: c966 0740 438c c4be 15ea 0d3e a681 fabe
000001e0: 15fa 38c0 1ccc 0740 7791 f4be 6e27 363f
000001f0: 8b18 46bd 2258 a23f 0405 3340 58fe ae3e
00000200: c37d 2e40 0d09 2d40 0128 edbd cdbc 1d40
00000210: 7723 0c40 fa62 683f 8dd9 5b3f b151 5e3e
00000220: 222a adbf 97f3 86be 0f8d c43f 495d 163e
00000230: d8b2 b33f db5e b43f c8d7 763f 5cd4 19c0
00000240: c718 8f3f da73 a33e 40ce a03e 7576 a03e
00000250: 80bc 6f3d 3e2b 70bf 925c a53e 04ad 0240
00000260: 9a05 71be dae1 253f f681 d6bf 5c94 1440
00000270: 2b63 b0c0 1fea 8e40 bfb9 0740 4a9a 7fbe
00000280: c8ad afbf 20f0 fd3f 364a 58be e4eb 2540
00000290: f9e9 ffbd aa6a 00be d25f 1040 2aa3 8b3e
000002a0: c9e3 0d40 8430 6540 aeba 00c0 bde5 6e40
000002b0: 3d8d e03f d851 f2be 243a 09be 9baa b0be
000002c0: 244b 6840 ca6c c23f 1970 21c0 05f2 553f
000002d0: 73cf 2040 252b 823f 511b 3c3d 04cd 40bf
000002e0: 270f 00c0 2881 4ebf ee68 4abe 9853 213f
000002f0: f79d 6cbf 6789 eebf 7c76 7240 75e8 35c0
00000300: 1747 3a40 58c9 ab3e 0765 363e de06 9240
00000310: 588c 983f 9e9d 1b40 7800 72bf c55c 8a3e
00000320: 7f6d 0d40 8998 4b40 595d 713c 9c14 303f
00000330: 1c63 7040 f430 1f40 541c b33e 17e4 b2be
00000340: 47f0 7540 584c f6bf 10ba e2bf 893f 6bbe
00000350: b917 903d 91d1 603f c658 8340 dd5e 1b3f
00000360: 0243 93be ebd7 643e b4a9 d8bf 7630 3040
00000370: c1ac 3cc0 1cf3 8e40 2aad 503f 7091 d93f
00000380: 553d 38c0 417d 83bf beda babd 71fd 3f40
00000390: 3273 213e 76c8 71bf 2eb2 8940 1f01 2740
000003a0: 0c29 953f 1680 b8be 3b8a 503e c4f1 29c0
000003b0: bb64 16bf c8f9 ca3d 716b 213e 5623 f83e
000003c0: 5dea 843f 5b1d 7a3f f22a 57bf 26ea f4bf
000003d0: 65ea 14c0 1ead 853f 5b82 96bf 2261 7fbf
000003e0: 60f5 c2be 3bd6 1cc0 f9d0 93bf 0817 3cc0
000003f0: 2859 8d3f 8a7a 533f 5e59 3e40 e56f d6bf
2.2528877 0.9961186 0.5766597 3.152354 2.5908148 1.463594 1.4934363 0.12656032
0.38989204 2.9662435 0.5524151 0.120668754 -0.5379409 1.0696615 1.268583 -1.741825
1.6492003 -1.6682466 5.1493983 -0.28746852 -0.11786473 0.009944347 1.7997049 1.7667513
2.1475847 -2.2049558 2.9774659 2.0543904 -4.1094894 3.70059 1.8526577 2.0411916
-3.2524707 1.6115178 0.6634259 0.50142026 0.02560881 1.333608 3.0387056 1.6116157
1.2322298 -2.1668394 4.2889385 1.235756 0.6491108 -0.08708268 -0.2736458 1.2829164
1.6317337 1.0464619 0.5952982 0.24716267 1.5080036 1.7827188 3.6884437 -0.260367
-1.9343587 -1.7806776 0.14256546 1.2657552 0.6907458 1.1829245 -0.79093117 0.534467
0.4829427 1.572939 0.22568762 3.7096186 3.1016548 0.3931122 0.0743024 0.17031279
-1.0211867 3.4525394 0.94958514 1.8416613 3.4629753 -0.41632876 -1.1645489 -0.15970834
3.043016 -0.029482307 0.3497678 -0.034667596 -0.08055241 -0.6932554 -2.2330887 3.1568873
4.866395 -3.5845935 0.36463904 2.4348152 -2.8869977 4.2685194 -2.7696779 1.0004888
-3.248132 1.6532265 0.36458215 -2.788047 0.43005195 -0.54060316 0.9198458 1.3398468
0.010210315 0.3935497 0.3542641 1.3210665 0.41605875 0.42155728 -0.054673195 1.9975222
4.0479875 0.7235972 0.38829106 0.35176656 2.1156485 -0.3838826 0.13858826 -0.4892704
-2.8902638 2.1218328 -0.4776723 0.71153915 -0.04836325 1.2683146 2.7971811 0.34178424
2.726426 2.7036774 -0.11579896 2.4646485 2.1896646 0.90776026 0.8587883 0.2171085
-1.3528483 -0.2635772 1.5355548 0.14684023 1.4038954 1.4091448 0.96423006 -2.4035864
1.1179436 0.31924325 0.31407356 0.31340376 0.058529377 -0.9381598 0.32297188 2.04181
-0.23537293 0.6479775 -1.6758411 2.3215551 -5.5121055 4.466079 2.120712 -0.249612
-1.3724909 1.9838905 -0.21122059 2.5925226 -0.124957986 -0.12540689 2.2558484 0.27272922
2.217028 3.5810862 -2.011394 3.732772 1.7543103 -0.47328067 -0.13401085 -0.34505162
3.6295862 1.518945 -2.522467 0.8357242 2.5126617 1.0169417 0.04592449 -0.7531283
-2.0009248 -0.80665827 -0.1976659 0.6301818 -0.92428535 -1.8635682 3.7884817 -2.842313
2.910589 0.3355205 0.17811976 4.5633383 1.191783 2.4314952 -0.94531965 0.27023903
2.209808 3.181185 0.0147317285 0.6878145 3.7560492 2.4873629 0.3498255 -0.34939644
3.8427904 -1.9242048 -1.7713032 -0.22973455 0.07035775 0.8781977 4.1045866 0.60691625
-0.2876206 0.22347991 -1.6926789 2.7529578 -2.948044 4.4671764 0.8151423 1.6997509
-2.8787434 -1.02726 -0.09123753 2.9998438 0.157666 -0.94446504 4.3030005 2.6094434
1.1653152 -0.36035222 0.2036523 -2.6553812 -0.5874745 0.09910923 0.15763642 0.4846446
1.0384022 0.9770104 -0.84049904 -1.9133956 -2.3268063 1.0443456 -1.1758531 -0.9975759
-0.3807783 -2.4505756 -1.1548148 -2.9389057 1.1042833 0.82608855 2.9742045 -1.6752898

fc.1.bias f4 [4]
00000000: 5eed ec3e 4c18 b43e 7992 fd3e 4fe6 8f3e
0.46274847 0.35174787 0.49525812 0.281054
